weights/mean_std_seg.npz (npz, 3794 bytes, 2 tensors)

arr_0 f8 [208]
0	0xbf9f7608df9683b8	-0.030723704001164726
1	0x3f960638f25a9b34	0.021508111755476025
2	0xbfd51aa529a4dc54	-0.3297512919120369
3	0x3fcc98c4623659f9	0.22341208262942283
4	0xbfc1dcc5510bde1c	-0.13954988915769284
5	0x3fc5c5699fafac72	0.17008705422572096
6	0x3fec2f3e7538390d	0.8807670869298662
7	0xbf84c0719ec8491b	-0.010132682474282497
8	0x3f85e842ee9a9c73	0.010696909815420796
9	0xbfd417625c24f1a0	-0.31392725943057975
10	0x3fd9c05f6f83cf27	0.40236650362133947
11	0x3fe8734638d70ddb	0.7640715704114273
12	0x3fd2341bb8b06815	0.28443043743175284
13	0x3fcbea150f10ccf2	0.21808112369180993
14	0x3f7b572418f97e31	0.006674901014406085
15	0x3f947680a0704594	0.019983300964729958
16	0xbfd5bd18e27bf020	-0.3396665775069341
17	0x3fdb80cfecdee7df	0.429737073248928
18	0x3fe9a626dfebe398	0.8015322087731986
19	0x3fc40cf9b6665d9a	0.15664597898715443
20	0x3fc351178b181152	0.15091223041248242
21	0x3f8aa7ab8b756c07	0.013015117829743529
22	0x3f9769441a18cbfd	0.022862495510889137
23	0xbfd7014bb1051502	-0.35945408141226676
24	0x3fdc844b10c65e0f	0.44557453764125027
25	0x3fea15f9d2091cde	0.815182600236678
26	0x3f9aa21e120a014a	0.026009054041879844
27	0x3fb51cf19ebcf6eb	0.0824728977722448
28	0xbf5d1c4d867a7122	-0.0017767674525322537
29	0x3fa8afe266c0bd5c	0.04821689132983906
30	0xbfd7630529761f34	-0.365418711175596
31	0xbfb78659ff1c0cbe	-0.09189379194508526
32	0x3feca7a335abac2e	0.8954635666135624
33	0x3fa3200616ae85a2	0.037353697079434825
34	0x3fc7b651a9d17d20	0.18525143424901902
35	0x3f7c4a4d525f4824	0.006906797445440236
36	0x3fa901a0daea8962	0.04884054825130836
37	0xbfd8b2250b761f64	-0.38587308997420267
38	0xbfa96677e5f8f88c	-0.049609896490879185
39	0x3feacf0419949c6a	0.8377705096835488
40	0xbfc51922c94d599b	-0.16482958630758734
41	0x3fc99ebb9e8f6841	0.20015664331623564
42	0x3f8800d61ef71835	0.011720345325454054
43	0x3fa679b792bc021a	0.04389737764541142
44	0xbfd9488b3293c0d2	-0.3950527185361469
45	0xbfa30959de93e68b	-0.03718071786893259
46	0x3fe742aa10222c08	0.7268877329928509
47	0xbfc63c4b5b713e12	-0.1737150379653803
48	0x3fc7aa1c946e52f7	0.18487889525990628
49	0xbf8f3833831c8290	-0.015243914068890946
50	0x3fa3fced53a8e57a	0.03903905531155778
51	0xbfd7ae706ce071db	-0.37002192146772267
52	0xbfbd23c521d4fdee	-0.11382705760933451
53	0x3feb5c81bbcb5115	0.855042330537375
54	0xbfc3918bc05ffacf	-0.15287920850092582
55	0x3fc939b72049c833	0.19707383228848271
56	0xbf74c9fcd56c9c62	-0.0050754429164846255
57	0x3f9df74903f981c2	0.029263630740730802
58	0xbfd8a5ef5bf93e73	-0.38512786847875374
59	0xbfb507bc45d4cc69	-0.08214928345550877
60	0x3fdd288907ebb86a	0.45559907697214064
61	0xbfa718dbc40a26a5	-0.0451115299993721
62	0x3fc038e912e2efb4	0.1267367689341633
63	0xbf5a1c51ea2347af	-0.0015936660716317876
64	0x3f944f21a9285880	0.019833112668572017
65	0xbfd89ac5412157f1	-0.3844464431798534
66	0xbfbd95726b3fd9f7	-0.1155616294707683
67	0x3fd3a75276b854f9	0.30708753198389577
68	0x3fcad69703f91b30	0.20967376417157757
69	0x3fb086d5842adc10	0.06455740429633772
70	0xbfa01ca25cfaada5	-0.03146846184730671
71	0x3fa0215fc899a340	0.03150462459308878
72	0xbfd7a8bccfaf3857	-0.36967392236409097
73	0xbfc3ba4c01e8d8e0	-0.15412283032646368
74	0x3feaea1c6b71fb33	0.8410780046977834
75	0xbfc84deea59d5108	-0.1898783024468076
76	0x3fc6763478742317	0.17548232919241322
77	0xbf961ed8fb8ad01f	-0.021602049210471926
78	0x3f9599f40a09a1a7	0.021095097649238472
79	0xbfd87939fdbbeb32	-0.38239908007351453
80	0xbfb6681cf9732724	-0.08752614107211493
81	0x3fd81a202e2dcda4	0.37659458646450106
82	0x3f8e26bfeaddb95d	0.014722346644444323
83	0x3fb2638aada72078	0.07183138598986882
84	0xbf922be4f5ab712c	-0.01774556874703241
85	0x3f88fdb745fd9c08	0.012202674697347163
86	0xbfd851f2c6c8e5b3	-0.38000173008512234
87	0xbfbb68aaf989fc12	-0.1070658549524384
88	0x3fd0c1f9617c8e4a	0.26183924217386745
89	0x3fd1a68fff0b640b	0.2757911673230075
90	0xbf73994364ce6b6a	-0.004784835106785271
91	0xbfa7617dfca6cc99	-0.04566568097234231
92	0x3f97d69bf187ac66	0.023279606453723643
93	0xbfd786652b2259a9	-0.3675778313858254
94	0xbfcc13f271b98426	-0.21935873558962377
95	0x3fea14cfe4b1db88	0.815040537518926
96	0xbfc712c1e2fb6b5f	-0.1802599294959135
97	0x3fc4edad5047b55a	0.1635033266060571
98	0xbfa3013f2df8986d	-0.03711888729257926
99	0x3f90782e1d738520	0.016083450839578295
100	0xbfd828d3fff059d4	-0.3774919509318384
101	0xbfba5092a24d06f3	-0.10279194319175726
102	0x3fd55a2a5ba865dc	0.3336282630058045
103	0x3f8fa12e04366171	0.015444144729187955
104	0x3fa25954be3561c3	0.03583779165154823
105	0xbfa0f7418b594e76	-0.03313641382251557
106	0x3f82e5465ddf8ff1	0.009226369609628167
107	0xbfd7fb180bba55a9	-0.3747005571870781
108	0xbfbeaf5f672ea19e	-0.1198634745511584
109	0x3fcad58fa212c406	0.20964236654029395
110	0x3fd29f4c44c01ff0	0.2909727736846426
111	0xbfafb52ad6b48e4f	-0.06192907210268272
112	0xbef30f75995804fb	-1.817740265686473e-05
113	0x3f22d28863f0d29c	0.00014360346719545925
114	0x3f2204dc8ef4a7e8	0.00013747398723157269
115	0xbf0042b96e32cd28	-3.101471318114397e-05
116	0x3f2270c21708516c	0.0001406895567163212
117	0x3f20bf308b16700a	0.00012776820726123655
118	0xbf04fd57587ec42d	-4.0034511641258735e-05
119	0x3f2515400d066e56	0.00016085059043012784
120	0x3f211719971e4bf6	0.00013038813954988044
121	0xbf0a26539137fe30	-4.9876618643193336e-05
122	0x3f26574213edc9d8	0.00017044717420906688
123	0x3f20ea3aa31178a8	0.00012905088218224015
124	0xbef98d7b58a0b660	-2.436891876571865e-05
125	0x3f26ca4baee395cc	0.00017387555948926295
126	0x3f2636dd7b1dde9b	0.00016948178886954244
127	0xbef56123173905a1	-2.0389024440575107e-05
128	0x3f26f96b6dd026f5	0.0001752799643386854
129	0x3f28347b9215d3d2	0.0001846695750306314
130	0xbef67453e98ee83c	-2.1414189720771396e-05
131	0x3f26e57f91b8b154	0.00017468626252660025
132	0x3f29f6e16b8dcde1	0.00019809247694589554
133	0xbedacd828463605b	-6.39027900303104e-06
134	0x3f24909c767e8977	0.00015689763972399535
135	0x3f2654c87721d75d	0.0001703734120074807
136	0x3ed723cd276f4935	5.516969955503879e-06
137	0x3f22036fc978242a	0.00013743152224801716
138	0x3f2ae7827ac0c5c1	0.00020526378409750463
139	0xbeb9ccd7d7fdfafa	-1.537809879409163e-06
140	0x3f206ff92b408724	0.00012540737736892974
141	0x3f2fcc2af4f63e73	0.0002425959050751273
142	0x3ed5f633f0ab6ef3	5.236084471528979e-06
143	0x3f23bc3957d5d250	0.00015056800831882372
144	0x3f253b8459d8f0c8	0.00016199102985748324
145	0x3ef5dbf3966146d0	2.0846543883407478e-05
146	0x3f21a272f0ecb2ec	0.00013454106416457086
147	0x3f29f9ee576664bf	0.00019818338814728793
148	0x3ef03c7329de1f75	1.5483982330560337e-05
149	0x3f2091359ba4beac	0.0001263978900367576
150	0x3f2f2039bb7c80ef	0.0002374716257174179
151	0x3ef1053ae634cf19	1.623194692719409e-05
152	0x3f23ba4640498c50	0.00015050990636486733
153	0x3f23922bc1192b5f	0.00014931472883214066
154	0x3f0228b521df2e64	3.4635570258592635e-05
155	0x3f22e2d2994e0199	0.0001440889433546144
156	0x3f26edb8b81c2b47	0.0001749313342361508
157	0x3f00e6b28e8ed0a4	3.223640835106734e-05
158	0x3f2257fda5eca425	0.0001399514321403238
159	0x3f2ad4ca92c9618e	0.00020470593280453832
160	0x3ed4e945f2f13433	4.985624214870693e-06
161	0xbedd77359b9d53ee	-7.025161204617261e-06
162	0x3ef27665e114863c	1.7607204488295636e-05
163	0x3ed8a2a423fbf0c7	5.873517295414995e-06
164	0xbed98d0fc1ea28ed	-6.091838285935395e-06
165	0x3ef2dc683603e495	1.7987218030566887e-05
166	0x3ed65fb8449f77e7	5.334354748113744e-06
167	0xbed5a2691dde8adc	-5.158046830463637e-06
168	0x3ef2eaa119171899	1.8040199909718187e-05
169	0x3ed5e682f6e2b397	5.221470798994017e-06
170	0xbed37fecef578d7f	-4.649092934158756e-06
171	0x3ef2e5150502a8db	1.8019535048687716e-05
172	0x3ed0a443e03960c9	3.967681098858592e-06
173	0xbed88417a115e42e	-5.845066440962128e-06
174	0x3ef2010bacf6040a	1.7170032888372994e-05
175	0x3ed181fa61f81f76	4.174167343780227e-06
176	0xbedc1b035d566368	-6.700878164699792e-06
177	0x3ef24ad5e32abc98	1.7444921648287858e-05
178	0x3ece8d56ee3ad051	3.642095053846654e-06
179	0xbedfdd99865fb1ad	-7.597356761462562e-06
180	0x3ef36c4568ffa915	1.8523153414586985e-05
181	0x3ed02618d657f3ae	3.850177880956977e-06
182	0xbed623f1a6074b76	-5.27868414264525e-06
183	0x3ef1ed6179fd416f	1.7096775649706597e-05
184	0x3ed1b93aaed89329	4.225624008512277e-06
185	0xbecfa2aa609c818b	-3.7712350192816165e-06
186	0x3ef128c9aa9159e3	1.6364409621461267e-05
187	0x3ed2f444e6c2bb3d	4.519027793899533e-06
188	0xbecbe00f72202e88	-3.3229870419810226e-06
189	0x3ef04fdf4269c61b	1.5556335848326574e-05
190	0x3ed12000ebe3dc15	4.08292151931387e-06
191	0xbeda27996e684f16	-6.235762816792441e-06
192	0x3ef226b551b1808a	1.73103372670407e-05
193	0x3ed156b0e7b38b22	4.133853163087647e-06
194	0xbed461828d7e5c4f	-4.8591848197588095e-06
195	0x3ef17dfb5be66175	1.6681782420842215e-05
196	0x3ed0dda0531bfafb	4.021102812278321e-06
197	0xbed1ed2e1640603c	-4.274006958147942e-06
198	0x3ef0a6b49dcefd0f	1.5879815567163227e-05
199	0x3ed28893c5f83bfa	4.418731890178622e-06
200	0xbedda81f31c14479	-7.070714470884114e-06
201	0x3ef24a3c8e9840cb	1.744269039788484e-05
202	0x3ed28e05163990ac	4.4238007351518685e-06
203	0xbed93efb77645372	-6.019121306506723e-06
204	0x3ef1c0af4f267fd7	1.693027020055457e-05
205	0x3ed2f5cc42c0f199	4.520451550912504e-06
206	0xbed7b683c91d4680	-5.653607461146592e-06
207	0x3ef13474f30b971c	1.64078803121171e-05

arr_1 f8 [208]
0	0x3fbf1cafecc16c09	0.12153148203053389
1	0x3fb0da8a5eab84e1	0.06583466349868018
2	0x3fb101917f083690	0.06643018103951648
3	0x3fc52fbfdce9255b	0.16551969801575236
4	0x3fc400ca9ba458d9	0.15627415275293435
5	0x3fcc6532a66669a1	0.2218383133411637
6	0x3fc432e9f53b5933	0.1578037688656849
7	0x3fbd86f9b5ebf730	0.11534081164788001
8	0x3fb0984b944a2bde	0.06482384081225187
9	0x3fb1e3f6bd5a1079	0.06988470194670694
10	0x3fd0a05e3cb73f08	0.2597880928924359
11	0x3fb8fad4b9e7c3db	0.09757737673477555
12	0x3fc23a1b10e402b5	0.1423982460473973
13	0x3fc5a078734f3c17	0.16895967130992126
14	0x3fbf09622966ceb7	0.12123692999630974
15	0x3fb1fe6a410c897b	0.0702883156596154
16	0x3fb2ee5606364cc7	0.07394921924269503
17	0x3fcf863863c1eb73	0.2462835776421702
18	0x3fb79535732614d8	0.09212049542664447
19	0x3fc1a7b126082b6e	0.1379300533011149
20	0x3fc8c07577f02a63	0.19337337833742926
21	0x3fc0489e07fac1e7	0.12721610440850314
22	0x3fb3128911b0d837	0.07450157815841939
23	0x3fb37b1e12ad1418	0.07609737354239632
24	0x3fcc90d28d36cc3b	0.22316963095872375
25	0x3fb69be12362b6a6	0.08831603158861387
26	0x3fc2c4f369cc7d54	0.14663546243626036
27	0x3fccb93153c5e35b	0.2244016322181562
28	0x3fc041c93facf089	0.1270076332965611
29	0x3fb29c0de97ae8c8	0.07269370031545741
30	0x3fb29f4845863064	0.07274295518271995
31	0x3fcb96f99014eb9f	0.2155448869251275
32	0x3fc8cdc42e8dce75	0.19377949021474064
33	0x3fc6e5918d38132f	0.1788808764978511
34	0x3fc8f1df27eb704d	0.19488133858874548
35	0x3fc10a74951ddec1	0.13313157349670315
36	0x3fb41fb71d9e0e5f	0.07860893700677128
37	0x3fb39772f4b11247	0.07652967904966444
38	0x3fc9300157f2b44f	0.19677750391329815
39	0x3fcf8f8369a4ac5d	0.2465671792827803
40	0x3fd26f2e74151954	0.2880359777085648
41	0x3fcb716539fec417	0.21439805347247962
42	0x3fc18b3a4522a5d4	0.1370613896918217
43	0x3fb52fab627df5c4	0.08275862841215714
44	0x3fb4a3f0ede0dc2f	0.0806265431173052
45	0x3fc836c3c013b5a1	0.18917128447303092
46	0x3fd84eed80c1c49a	0.3798173673049604
47	0x3fda634b20d0740e	0.41231039242285383
48	0x3fce3fc8fb295640	0.23632156623595968
49	0x3fc0b31064182c6f	0.130464600443108
50	0x3fb292e3475d222a	0.0725538300731691
51	0x3fb21429c9cf62dd	0.0706201665592618
52	0x3fcde8edb4e5c387	0.23367091496359313
53	0x3fcc81251ab4365a	0.22269119075683613
54	0x3fcc38e3cb481cd9	0.22048613954414156
55	0x3fc9e5362eec4e4d	0.20230748454251782
56	0x3fc165934f37ec41	0.13591233604515376
57	0x3fb3c064bfd18a41	0.07715444262570605
58	0x3fb37363ba8320c7	0.07597945502778024
59	0x3fcbff682faae940	0.21873190238495432
60	0x3fe1182433afbeaa	0.5341969499113095
61	0x3fe3238230362688	0.5980845395690304
62	0x3fd1b895093e3528	0.2768910017264994
63	0x3fc1cea89b40da2f	0.13911922054985967
64	0x3fb43fe9e785d35a	0.07910024549876252
65	0x3fb4fcba96a0c0df	0.08198133637847914
66	0x3fcaa463f592d695	0.20814179888627807
67	0x3fe01ff777bdfcde	0.5039021815026918
68	0x3fe5b71378313b16	0.678598150969125
69	0x3fd2d2040efc65db	0.29406835044355056
70	0x3fc11565ad8b2e75	0.13346549009144196
71	0x3fb29c20b60137ed	0.07269482081866814
72	0x3fb158d3bff208e7	0.06776164470832989
73	0x3fce5b508932b931	0.23716170024040076
74	0x3fcda53bea3d4f33	0.23160504281497082
75	0x3fcce5fee4eac1ed	0.22576891114796585
76	0x3fc9f55d3048452e	0.2028004155877538
77	0x3fc1ad4c9eb59427	0.13810117482640402
78	0x3fb380404c0bdb64	0.07617570740317842
79	0x3fb2a493d355414f	0.07282375249383687
80	0x3fcce2f88d4c6e29	0.22567660235732603
81	0x3fe199ddb4b3b0cf	0.5500324754080114
82	0x3fe453c6a1c9e677	0.6352265510497109
83	0x3fd300b80f841747	0.2969188834689373
84	0x3fc1f996ea808ae5	0.1404293675451164
85	0x3fb3c779384c0fae	0.07726247429314867
86	0x3fb433cff979f608	0.07891559448940921
87	0x3fcbb9eb1b89570b	0.21661127895884422
88	0x3fdf153d791e7bcf	0.4856713946155055
89	0x3fe5e1add4457929	0.6837987085271254
90	0x3fd3924821869d36	0.30580333017356354
91	0x3fc168324623942b	0.13599232125048508
92	0x3fb2b60008bea367	0.07308960164540466
93	0x3fb0bb2d5f85c775	0.06535609800428495
94	0x3fd0770eaecec563	0.2572666842562141
95	0x3fd05353ee0ba727	0.25508592840798133
96	0x3fccf276411cdbd1	0.22614935092289426
97	0x3fcb714be62141b5	0.21439503418743092
98	0x3fc1c93dfb11c5af	0.13895392188309816
99	0x3fb33997525420a2	0.07509752044654985
100	0x3fb19bc34723ba53	0.06878300177388867
101	0x3fd019815c4b3b8c	0.2515567208583256
102	0x3fe194bc82c33f92	0.5494062952002301
103	0x3fe43a85d9ecd0f6	0.6321439033841034
104	0x3fd567eebf222de7	0.3344685427225315
105	0x3fc1ec36fcaa2331	0.1400212033952584
106	0x3fb3377759fcb142	0.07506509730291547
107	0x3fb2a2c2e56c18e5	0.0727960405457427
108	0x3fcdfff0db2e286e	0.2343731947151499
109	0x3fde468d47a3304d	0.47305614467473306
110	0x3fe5b7b8c2718256	0.6786769674036559
111	0x3fd598a6c4e5d1f1	0.3374421046094361
112	0x3f85608cb33aa04e	0.010438060016284247
113	0x3f84733b6e884fb3	0.00998541289394681
114	0x3f84a742e439ddc1	0.010084650602251057
115	0x3f84c246978e00bd	0.010136176586229667
116	0x3f847abde5ce9cdb	0.009999736381202265
117	0x3f85b6fe5ea0e355	0.010602938902694406
118	0x3f862f2a2667739a	0.010832146927833897
119	0x3f86e23f63fc608a	0.011173720587564401
120	0x3f87913b89723644	0.011507477886222202
121	0x3f8743d142440c52	0.011359820208332181
122	0x3f88c04c0be6f0fc	0.012085527528022492
123	0x3f88a53193a0470a	0.01203383189934783
124	0x3f87f3ea56bbd6da	0.011695700427917389
125	0x3f87a60b915807e2	0.0115471748094968
126	0x3f87a4e3660db394	0.011544968177725136
127	0x3f8992f8381fa788	0.012487353527791858
128	0x3f8aa2c9f0c95bf1	0.013005807553026801
129	0x3f8941d67b987ab8	0.012332606932486598
130	0x3f8a9ca78a11b00f	0.012994107152017901
131	0x3f8d3964a2cdbf80	0.014269624918341384
132	0x3f8b5e4253ce55b1	0.013363378698879243
133	0x3f88244b3ee0921b	0.011787975174294243
134	0x3f8796332aa47626	0.011516952265590307
135	0x3f86ccfbbe978350	0.011133162263776392
136	0x3f89e4ef75802d1f	0.012643690846764031
137	0x3f8a71f73250bd81	0.01291268465328588
138	0x3f88dc58325cd73e	0.012139023816057578
139	0x3f8af1d2a958a642	0.013156553071058789
140	0x3f8c78ed1ed523cd	0.01390252352088508
141	0x3f8b832ce1187c46	0.013433790797590228
142	0x3f887ec1f45775ec	0.011960521001067335
143	0x3f879f3c74755077	0.01153418760683443
144	0x3f85df7088c6383c	0.010680083440799952
145	0x3f8a1020b2b82225	0.012726073698119464
146	0x3f89d5098e3afa72	0.012613367703463416
147	0x3f880c03c378a9ff	0.011741666224300394
148	0x3f8b325d324899c5	0.013279655549081401
149	0x3f8b87b9c8df8897	0.013442470019019033
150	0x3f8af442f981156d	0.013161204566254548
151	0x3f8918440bbef2d0	0.012253314598518555
152	0x3f87eec29be9aa6e	0.011685867674903618
153	0x3f8519a2997a8fbb	0.010302801426696697
154	0x3f8a281821677d84	0.012771786231438716
155	0x3f897f147680caa1	0.01244941698687302
156	0x3f8679e8f5b87945	0.010974712370679493
157	0x3f8ace82d62c53ce	0.01308920112709613
158	0x3f8a754dfe2aedae	0.01291905338199836
159	0x3f884cf166f770fb	0.011865507082739138
160	0x3f76eb0c108d7944	0.005595252158711542
161	0x3f7cd3a9121a6148	0.007037792618256163
162	0x3f734de5b1accf0e	0.004712960474353668
163	0x3f7b0da477f13d8e	0.006604807334113073
164	0x3f7f5b2eca6d94e6	0.007655318046862569
165	0x3f761d99d2fcc7e1	0.0053993233448625675
166	0x3f7df08d4483bfce	0.007309486223888896
167	0x3f81dfc7ed6ddcb8	0.008727609570753678
168	0x3f79d574077bd406	0.006307080496971379
169	0x3f7f10bd549af32c	0.00758432347509767
170	0x3f839eea0b17018a	0.009580448592601671
171	0x3f7ceb8800f84188	0.007060557617947778
172	0x3f7d9399f5181c67	0.007220841785517163
173	0x3f805441b7b59026	0.007973206919537356
174	0x3f7736cea654a5a3	0.0056675026183169745
175	0x3f8026fca21c93c8	0.007886861512426693
176	0x3f82d29d45f1a31e	0.00919077748967961
177	0x3f7b051dd80a90b5	0.006596676423814942
178	0x3f81837f1429828e	0.008551590731429994
179	0x3f85d16cecf96cfa	0.010653353673822686
180	0x3f80e9b1679a7aa5	0.008258233999467743
181	0x3f7abfe1eda87660	0.006530649693130636
182	0x3f804aaa7595fec8	0.00795491381973025
183	0x3f760d0017c82394	0.005383491862183915
184	0x3f7e64bc2eb46c87	0.00742028721586075
185	0x3f839956e4c215af	0.009569815498489868
186	0x3f7ab28c09302898	0.006517931952666832
187	0x3f810cbb13a085c4	0.008325063263387451
188	0x3f868f32b350f55d	0.011015316102311596
189	0x3f80f126d0c2de55	0.008272460218321212
190	0x3f7afd5e5c33096f	0.006589287371016147
191	0x3f80e6e90c73ce66	0.00825292653323757
192	0x3f75c1964185d256	0.005311572015092544
193	0x3f7e2bb2392f9d99	0.007365890679444397
194	0x3f83369027b9f10d	0.009381414615966333
195	0x3f7ad24869df5655	0.006548197617993153
196	0x3f817168da8e2fbd	0.008517092866689663
197	0x3f85d02c8ab4f973	0.010650966628074276
198	0x3f81935182fb829b	0.008581768808143144
199	0x3f7dcf256b311b04	0.0072776281040833925
200	0x3f822670fb15ad01	0.008862383520599428
201	0x3f765a26e70add22	0.005457069361617857
202	0x3f7f8019062ead97	0.007690522909722295
203	0x3f83d6863fe5fac0	0.009686516594908823
204	0x3f789ba8cb9d25b4	0.00600782333078469
205	0x3f8119fdd58dbb83	0.008350356177940338
206	0x3f855f5601989d70	0.010435745166502669
207	0x3f7d4785b6dab0e3	0.007148287125954253
