weights/mean_std_class.npz (npz, 3794 bytes, 2 tensors)

arr_0 f8 [208]
00000000: 1012 9c9d c917 a3bf e7a9 c0a1 7c6c a33f
00000010: 8eee 2335 ba56 d4bf f7d8 37b5 a256 ce3f
00000020: debc c9f2 1ef9 c1bf 73ba e515 4ed2 c33f
00000030: 1ba7 7a36 b8b7 ec3f e30a 6c54 b341 90bf
00000040: 4443 e148 0db9 9a3f 136c 2bdb 2a5a d3bf
00000050: e670 4b83 0e76 db3f 9ffc 9c35 ccea e83f
00000060: e83c e790 1d89 d13f e05b 5a09 9537 c93f
00000070: a472 9b8e 328f 303f cae6 fdc1 4b98 a13f
00000080: c6ec 5d4a e71e d5bf 2f28 1810 c51b dd3f
00000090: bba0 173c 2b0d ea3f 5984 d00b 7628 c23f
000000a0: af50 0c8c 50e9 bf3f aa6b 2b93 3dcc 763f
000000b0: 063c b02f 06a8 a23f 28f7 dbb3 bd78 d6bf
000000c0: 49cd cbfb e4f4 dd3f 3dec e1f2 056b ea3f
000000d0: 2617 c16f fcf0 7a3f 0662 03af 94db a93f
000000e0: cf31 a03e fe7c 7fbf 6c1b 7149 65c0 b03f
000000f0: 6eef 053b f2a6 d6bf e124 2abc 34c8 b6bf
00000100: 330e ff9e 156e ed3f 9537 01d4 a585 b63f
00000110: c4d8 7782 db07 c63f 03b7 0e66 79bc 4d3f
00000120: 7916 523d 2a9e b13f ce2f 79c5 1c15 d8bf
00000130: b8a4 f9db e77e b0bf c75e 5e30 59d2 ec3f
00000140: 9a39 dbdc b299 b2bf ffa2 f9e3 a5d9 c93f
00000150: ccdd 2a8a f168 7a3f 68e3 3a71 56e4 b03f
00000160: f485 c8a2 e5da d8bf 5629 5451 d74c a3bf
00000170: 7d8b d3dd 09bf eb3f c9d0 c5c0 564f c5bf
00000180: 5faa d931 282a ca3f 261d 67b8 3684 95bf
00000190: ef0e be2f 3f5f aa3f 2793 4b83 86d9 d6bf
000001a0: 7da7 ff4c 57a9 b0bf 21ea eba0 e58a eb3f
000001b0: 275f 45cd 0da9 d0bf 2c63 a6d5 8ca5 c93f
000001c0: 76e1 20cd 8cb7 86bf 473f c4ab 95c2 a23f
000001d0: 9a46 123a dc80 d7bf 301a 417e 1256 b8bf
000001e0: 5191 059d 13ae cd3f d08e ee6d 1a1a c33f
000001f0: 051d 46bd b931 ad3f d95a 2f94 5de8 83bf
00000200: 5952 597e c426 9b3f 9438 5e8d d412 d7bf
00000210: bba0 bd6a bc4a c3bf 6e4c 24be 7df6 bf3f
00000220: f855 3965 a96b df3f 6713 7802 7910 86bf
00000230: cffb ea2d 1f57 a3bf 3033 fb4c aee0 a63f
00000240: beb6 a6ce b7db d6bf b0c2 e221 0baf bdbf
00000250: 9368 b238 3027 eb3f 4001 4eb1 4459 d3bf
00000260: 80a6 a30e 003f c83f 86f9 fe5b 9406 9cbf
00000270: d2b9 ffda 944a 9e3f 64f2 800d 905d d7bf
00000280: 1c55 2c03 bd25 aebf ea3f 9fbe 86f8 c23f
00000290: 01a9 c28d 0621 cd3f f42f b619 58d5 98bf
000002a0: 5ea6 2834 3ba8 99bf 83c4 3902 f5e0 943f
000002b0: e3e5 613c 7bd4 d6bf 448b cd78 e6e9 b7bf
000002c0: 3e4f e03d 090d b43f 2154 8879 5c47 e33f
000002d0: c5ed ec7a 6031 c0bf e134 3c25 87e4 aabf
000002e0: 6999 23bc 7b87 a33f cc1d 33fb 2fc8 d6bf
000002f0: 416a 299f 4ec0 c9bf 08d7 94b2 16bc ea3f
00000300: f9a7 5c2a 3a2c d2bf 6cdb cffb f753 c93f
00000310: f8ad 9596 8fe5 a5bf 7cac b358 48c0 9c3f
00000320: d233 b961 9f36 d7bf f8fe 0629 d18a acbf
00000330: be23 69ec 1aad c03f 1500 4f1f b0b9 cc3f
00000340: 2648 d1e1 5fb8 adbf 0630 9c05 c663 a4bf
00000350: ebcb 4441 d5dd 953f fed6 ff8e 62c2 d6bf
00000360: 794a c7e9 c7e8 b5bf 64b2 1655 b0e9 a93f
00000370: 3501 c9b8 babc e33f ba26 d9be e6f4 c9bf
00000380: a21e 86bb eea9 57bf 0d57 abcc d2c4 3bbf
00000390: f9c6 557e c4a2 2abf c27f 458c 7446 56bf
000003a0: 8164 541a 100e 36bf 5020 4de3 af74 32bf
000003b0: 2ab9 fd95 bd79 58bf 48e9 fb0d 1033 3abf
000003c0: 4778 7f21 67dc 39bf 343f e2d7 bbcd 59bf
000003d0: bb08 3a20 bfff 3cbf 8fef bc16 6a58 3bbf
000003e0: d058 c7bc 9179 5bbf ed0d 73de e474 40bf
000003f0: 6227 8bc4 b6c0 3ebf a21b 2d31 a271 5dbf
00000400: 6525 f516 3ab7 42bf 415b f55e 2f4e 40bf
00000410: 1b7f 3f49 1d87 5ebf c3db 71e4 c3d9 44bf
00000420: b9b0 f81f 321d 40bf a20b 4929 ec5d 5bbf
00000430: 03c7 838d 7c45 42bf 730b ec7e ba79 35bf
00000440: 4fbe c301 d369 5cbf 0ad0 25b5 cab3 43bf
00000450: 763a fc64 cc46 31bf c8f8 ef23 7554 5cbf
00000460: a616 974d 62e6 42bf 625d 4bdd ab9f 25bf
00000470: be4b 2f0c 0b23 5bbf eaae 5973 224e 42bf
00000480: 0a3a 5b6d f227 2bbf 14f2 42e9 2af6 5bbf
00000490: 20fb bad1 4295 42bf 53b3 5a83 6950 26bf
000004a0: 6762 8eed 8e90 5bbf 485e 258a ee26 41bf
000004b0: 13d8 f310 01cb 1bbf 5a7d 7187 ddc3 5abf
000004c0: beac e7fc d27e 42bf c43e baac c1cf 18bf
000004d0: fb98 d03f 8d6b 5bbf 64fb 8aff 5faf 42bf
000004e0: df85 19b1 5f2d 18bf 7a7f 1dff c6f8 5abf
000004f0: 6e9a 5d78 7281 41bf b4c4 5eeb b633 0ebf
00000500: 11ef e7e5 ffb4 213f 81dc 6a90 beb5 1d3f
00000510: da6b f061 359f 153f 6407 9202 930e 213f
00000520: a88a 9c56 00f7 1c3f dfdd 4be1 e030 183f
00000530: cce8 4383 e70e 223f ccad 7508 645b 213f
00000540: 2d95 920d d0d1 1c3f d01d 4c0e c3d5 223f
00000550: ab22 b5fe 0b13 233f bebc 9b7b 0966 1e3f
00000560: f5a1 f8b3 87c5 223f 65bc e0fe f72b 223f
00000570: afa0 1f86 a78a 1d3f 5a0e d04e fba7 233f
00000580: 60c9 92d4 e8df 213f 3cf9 faed 281e 203f
00000590: eab1 66a6 1b91 233f 4295 b929 9a44 213f
000005a0: 3a10 45ea da1b 213f 8451 da2e c807 243f
000005b0: 23b1 9ae6 e29c 223f 8661 ff40 d86e 193f
000005c0: 467c c4df cb9e 253f 8276 8e28 40ff 223f
000005d0: 5d4c 07b2 9024 193f 4f57 3619 cbc4 253f
000005e0: 2999 db2a b6ee 213f 22b9 c782 d030 183f
000005f0: 429c d84b a730 243f 2d4f 0ab6 d2e7 213f
00000600: 31b6 030e c485 163f 5e02 a960 808b 253f
00000610: 8303 0425 d367 223f 59eb ee1f 0896 173f
00000620: cfcb 8f3d 17b3 253f 3086 9c94 4bd5 203f
00000630: dcbd 6ab0 fb02 183f 6759 4c13 197e 243f
00000640: 0c03 e44b cf06 213f 9b0d 7496 939f 133f
00000650: b532 3014 0310 263f cad9 62d8 c235 223f
00000660: 4729 3ce8 9f83 133f 5538 a64b 55e8 263f
00000670: 4d5a abb4 9fd8 213f 4a7c 7cda d858 123f
-0.037290859689196876 0.03793706392783119 -0.31779341878402867 0.23701890800993627 -0.1404150662888019 0.15485549992759537 0.8974267066998637 -0.015875627544128867
0.02609654195140655 -0.302378381760435 0.4290806085753175 0.7786618277676957 0.2739938654967333 0.1970087333363315 0.0002526758604355728 0.03436505072654723
-0.33001119863883976 0.45481993266787674 0.814107529990927 0.14185977532273134 0.12465384883063522 0.005565872694854793 0.03643817264684661 -0.3511194473684207
0.46807217206442836 0.8255643600272219 0.006577478485331223 0.050503393520276815 -0.007687562125294935 0.06543572466862962 -0.3539395882032669 -0.08899240106451912
0.9196880441090286 0.08797680307290386 0.17211479063525392 0.0009074776427177859 0.06881965634428323 -0.3762885979128868 -0.06443642731177845 0.900677294225681
-0.0726577557754581 0.20195459014509962 0.006447738184469153 0.06598415626912202 -0.3883604135208707 -0.03769562595160163 0.8670701344056934 -0.16648373043756795
0.20441152986616637 -0.021012167935421953 0.051507925584727825 -0.35702669927404646 -0.06508393888330306 0.8607051985739568 -0.26031823202127885 0.2003646891796732
-0.011092281351111604 0.03664081308136118 -0.3672400061705986 -0.09506335813885225 0.23187489668920105 0.14923410766379286 0.05702000079605266 -0.009720545849558547
0.026515073978162416 -0.3605243092105266 -0.15071826183271306 0.12485490696080756 0.4909461487307847 -0.010773606670235926 -0.03777406154176043 0.04468292894089243
-0.35716052227767736 -0.11595220162667874 0.8485337359773147 -0.3023235064975047 0.18942261423881135 -0.027368848910322117 0.029581380716928347 -0.36508561438293996
-0.05888167060599356 0.14820942218511785 0.2275703613461886 -0.024251343316379306 -0.025055813845176515 0.02038939310154265 -0.3567188348457348 -0.09341278504647926
0.07832391510629308 0.6024610875780391 -0.12650686266156988 -0.05252477960139302 0.03814303084964161 -0.35596847087114436 -0.2011812474400632 0.8354600418012703
-0.2839494146052171 0.19787502093796705 -0.04276703561012235 0.028077249921733202 -0.3627088980036294 -0.05574658990690112 0.13028275054446498 0.2244167473672866
-0.0580472911029946 -0.039823711571529016 0.0213540383421779 -0.35561431851179737 -0.0855832048176043 0.05061102904014517 0.616788254650635 -0.20278629606973714
-0.0014443236705989145 -0.00042371889564428515 -0.0002032151088929219 -0.0013595712817604387 -0.0003365315736388389 -0.0002816132940108894 -0.0014938689637023586 -0.00039977209051724307
-0.00039460676043557127 -0.0015749296576678786 -0.0004424897781306715 -0.00041725721415607984 -0.0016769335953675142 -0.000502216102994555 -0.0004692503176043553 -0.0017971118838475482
-0.0005711587563520913 -0.0004976016333938308 -0.0018632684705081673 -0.0006363111978221415 -0.0004917616606170606 -0.0016703420889292238 -0.0005575998466424706 -0.0003276901542649736
-0.0017342148412885677 -0.0006012668402903831 -0.00026361932849364807 -0.001729120631125224 -0.0005767803187885681 -0.00016497586206896524 -0.0016563041578947359 -0.0005586307731397487
-0.00020718416515426468 -0.0017066401533575347 -0.0005671097055353937 -0.00017024314882032685 -0.0016824146061706015 -0.0005234398598003643 -0.00010602182395644281 -0.0016336120004537187
-0.000564435025635211 -9.464854809437389e-05 -0.0016735915553539027 -0.0005702227345735053 -9.22288566243194e-05 -0.0016462272000907483 -0.0005342301308076233 -5.7605762250453717e-05
0.00013509391551724166 0.00011333442317150619 8.248103448275872e-05 0.00013013405376588038 0.00011049212994555335 9.228107985480943e-05 0.00013777328570780398 0.00013242336374773148
0.00010993797640653355 0.00014369970372050825 0.00014552613661524458 0.00011596138838475525 0.00014321595698275872 0.00013863947191470046 0.00011269233212341205 0.00014996474001814885
0.0001363727299455537 0.00012296914700544472 0.00014928305172413832 0.00013174421188747771 0.00013052985480943737 0.00015281981125226881 0.00014200467858439215 9.701914700544463e-05
0.00016494978616152424 0.00014493616279491825 9.591229582577147e-05 0.00016608218411978202 0.00013681386683756763 9.228012704174231e-05 0.00015403787794918312 0.0001366085735027221
8.591660617059887e-05 0.0001643747530852999 0.00014042332123411988 8.997368421052639e-05 0.00016555460641107112 0.00012842700589836683 9.159718693284947e-05 0.00015634590240471842
0.00012990265344827617 7.485712341197827e-05 0.0001683238752722326 0.00013893130762250425 7.44406079854809e-05 0.00017477074818511804 0.00013615560086206944 6.998847549909249e-05

arr_1 f8 [208]
00000000: 672f 9667 e643 b63f 77f2 f0a1 f0cb b43f
00000010: 51fc 85b8 fdbd a33f 7435 bf35 ede3 c23f
00000020: 230b 1a4a eafb bf3f 52e6 74c4 eae5 c73f
00000030: 77cc 9cb8 8333 c33f e040 00f7 0b77 b53f
00000040: 8205 c67c d574 b43f d1f3 0994 e8d0 a43f
00000050: 4081 9f89 0eb4 cc3f 3a33 b0be 0638 b73f
00000060: 4776 1ece 0a6e c03f b3c3 e151 cd6a c23f
00000070: 9cdc 2fb8 622b b73f b030 8844 2519 b63f
00000080: b36d e1a2 6eab a63f f56f 67c0 68c3 cb3f
00000090: ab22 631c 5913 b73f 50f7 993b 1f6c bf3f
000000a0: 9a62 af1e a705 c43f fa49 849a 4e60 b83f
000000b0: 18bb f6f0 e162 b73f c0f0 32d2 6fdf a73f
000000c0: 6589 856f f8b1 c93f 7efe feb2 358e b63f
000000d0: 188f 2a9c f78c c03f 2ec0 4d72 b7e3 c63f
000000e0: e2a1 d86a 8cbc b83f a115 13dd 63be b63f
000000f0: 1873 1b5e e734 a53f 63bc 0356 f3bc c53f
00000100: 456d 2edb 1949 c53f a286 261b 9711 c33f
00000110: b5a6 959d ae3e c63f f55d 873c ad25 ba3f
00000120: 9b02 de27 5568 b83f f5a6 7252 8f6c a63f
00000130: 7da7 cf5b ddbd c03f ed96 6906 5aff c83f
00000140: f3a2 4fd3 0d40 cc3f 7de6 31fd c8cf c73f
00000150: c87f 8ac2 e7e5 ba3f 77f4 b85b 9ca5 b93f
00000160: 365f e326 88c1 a73f 92a8 d977 bbbd c03f
00000170: f7b8 6b05 06db cb3f 99d1 ff42 04b2 d13f
00000180: f4ea f372 e967 c83f 64ca 590d f6af b83f
00000190: 426d 127e 75bf b63f 833a 06a9 16b7 a43f
000001a0: 6600 bf4b 0b84 ca3f 06f8 9913 c96b c43f
000001b0: aac2 a5e7 897b cb3f 6b9c 86e3 0b1a c73f
000001c0: e85b c0c9 b24b b93f fccc 813f 60ed b73f
000001d0: 2fbe dbb6 8e05 a63f b960 87f5 ac4c c63f
000001e0: c763 0b07 c279 e13f e1ce d3d6 6cc2 e63f
000001f0: eab0 6f6f 34c9 d13f 7332 87d2 e128 b93f
00000200: 3716 93ba 4057 b83f aa3c a765 dc3f a73f
00000210: 1907 6898 8a72 c33f 2b90 686c 7b0c db3f
00000220: 9df2 fd24 1b58 e53f cc62 0363 6a67 d13f
00000230: 4b14 f670 efa8 b83f 28f1 9b6a e2c2 b63f
00000240: f757 0c86 fe23 a43f 5e55 264f 0427 cc3f
00000250: 01a0 e9e2 95e7 c33f 8181 e2de 349f c93f
00000260: e5f8 63b9 6be4 c43f 6fa9 e6d8 d606 b93f
00000270: 6812 2fb9 4dad b73f 5b4b 88de 78d5 a43f
00000280: c32a 09e3 5fec c93f 1469 2da5 87d7 e03f
00000290: 184e 73b2 162f e73f e8ec f5b8 0605 d23f
000002a0: e7f6 a7c1 4ab0 b83f e0f2 5dbe a3ee b73f
000002b0: 3939 ea0f 96a0 a53f 129b 1ec9 bf84 c93f
000002c0: 6e81 26e8 6f8e d83f 8195 6b0a 9e2e e33f
000002d0: 690f ed95 7b52 cf3f de8e b675 0ca5 b83f
000002e0: 36f0 13db 30d1 b63f 06cb 2c63 3e07 a43f
000002f0: d536 69b4 5edd cd3f 35de 439b d869 c23f
00000300: 1a05 7387 3711 c93f a451 dc04 3085 c53f
00000310: f8d5 a004 79db b83f 3013 24c1 996c b73f
00000320: ccbc e057 f826 a43f 7eb4 1638 5fbf cc3f
00000330: 7b29 fa99 249a e03f 387c 1189 47a7 e63f
00000340: 5609 494c c0c7 d43f e678 1188 0d71 b83f
00000350: ce5a e30c 1c83 b73f 72cd 7f44 2b36 a43f
00000360: cad7 b370 59ee cb3f 060f 43dc beae d73f
00000370: 91cc d9f9 a509 e23f d115 1a8d 357a d03f
00000380: 7f16 2967 d03f 873f 6ff4 5496 0bd0 8d3f
00000390: cd86 3bcb cf6c 6a3f 9a45 931a 544d 873f
000003a0: a3b9 692c 47e7 8d3f 6371 bd93 fd17 6d3f
000003b0: 946a afa1 6633 893f 894f 7590 60ac 903f
000003c0: 6b31 dfcc 30c1 703f d5ef 5af3 e613 8a3f
000003d0: 6314 dd23 d1e6 913f 5fa9 1c9c b1d1 723f
000003e0: a5e1 e4d4 1421 8b3f b7de a990 0013 913f
000003f0: 80ee 0a26 c704 6f3f 5f70 c105 7f03 8d3f
00000400: 06dd 9b44 13a9 923f 09bd b7f3 ffc7 723f
00000410: 9ae3 00bf 975a 8e3f abe9 bfe2 5900 943f
00000420: b965 13f2 8c56 7a3f d807 439c e363 8a3f
00000430: 8e14 8874 8cdc 903f 6e5c ae93 c807 6d3f
00000440: ce3c 33e8 a383 8b3f 531a 7391 1852 923f
00000450: 4e02 74ef a9b7 703f b9ff b02e f755 8b3f
00000460: fb3c ee59 9624 933f f488 f4d7 7c5d 743f
00000470: c3f6 f158 a39a 8a3f 9504 3a32 949f 903f
00000480: 88cd 8227 732b 6d3f 7b91 9312 578c 8b3f
00000490: ab35 111c f493 913f c17c b18d ebb9 713f
000004a0: 5e5e efb7 2165 8b3f 99e4 5898 1e32 923f
000004b0: df3d e044 cfe3 783f ca77 4a48 199e 8b3f
000004c0: 9e25 dcad 5282 903f 5699 8620 0748 6f3f
000004d0: b28d 425f 433f 8c3f 940d 6a91 aa24 913f
000004e0: 1635 91f9 93fa 6e3f fa30 c910 fafa 8b3f
000004f0: d3d9 7cc7 ad6a 913f d185 4344 004d 733f
00000500: ebd9 54cc fdd1 6d3f a535 bf9e a469 743f
00000510: b4cf 6a62 6342 623f 1986 616f 905f 7a3f
00000520: d491 aa4b a736 7a3f ba6c 38d7 e186 653f
00000530: e08c 1f2e 6544 7b3f 4382 cb6c d4b1 7f3f
00000540: ee12 6d5f fb7a 6b3f 6a79 4f9c 35ac 773f
00000550: 4a21 70aa 65e8 813f 90db d090 b278 713f
00000560: e8f3 c8ec a66b 7a3f 1dfa 48f2 5111 793f
00000570: 6c6a 0f1e 7ca5 663f dfae 6db0 8558 7c3f
00000580: 58f6 0018 fb86 7c3f c309 a3e9 307a 703f
00000590: 904b 48dd 85ef 7f3f 3905 0697 a524 813f
000005a0: 4672 7c85 76eb 7d3f 37bd 80df 0b95 713f
000005b0: ccef 6093 c28b 773f 31fa ae36 1a7b 653f
000005c0: 88a2 1239 4ba4 743f 492e ba51 d383 813f
000005d0: 045b 8ddf 25c6 6b3f e70b 3bd4 7bc3 753f
000005e0: 1b87 5ce7 d712 863f df71 76b2 e68a 733f
000005f0: 6cd8 4a4f ad3f 753f c4d3 408e 12ca 773f
00000600: a59f a18a c059 673f 1aeb 8aac 2887 783f
00000610: 9d19 a479 f12b 7c3f 2e1b c7c9 3a3f 723f
00000620: 50c9 6672 a378 7b3f 135f 1f56 8071 823f
00000630: f021 6c74 1673 7f3f 616e 8462 1d7c 7f3f
00000640: d83a c4fd d036 793f 7715 b032 af86 6a3f
00000650: a3db bddf bc5e 803f a1f1 c0e9 22e6 793f
00000660: 5b20 396d d22f 6a3f 9393 5445 a138 813f
00000670: e83f 02e8 1bd0 7d3f 01c3 930f b5c3 743f
0.08697357205363475 0.08123687699930736 0.038558892035319155 0.14758076786385355 0.124937670794719 0.1867040118466315 0.15000959886819817 0.0838477590589295
0.07990774437168649 0.04065634543528741 0.22424489707828776 0.09069864421344401 0.1283582216682808 0.14388433931483532 0.09050576206924393 0.08632119105476721
0.04427667368210155 0.21690091509560686 0.09013897841499367 0.12274356083977733 0.15642251013084235 0.09521952888852772 0.09135257847695433 0.04662656250863639
0.20074372716323832 0.08810744876881846 0.12930197835259416 0.17882435876117725 0.09662702187109276 0.08884262225463725 0.041419248807619435 0.16982881259852708
0.1662933654996356 0.14897431207378015 0.1737879056411679 0.10213740089181285 0.09534198973961809 0.043796995939670604 0.13079421027151375 0.19529271424396857
0.22070477312015377 0.18602859843285904 0.10507057666336472 0.10018326987570157 0.04639840578755498 0.13079017021238265 0.21762156738936486 0.2764902738847695
0.19067113984041095 0.09643495393701468 0.08885893180779639 0.04045935452733309 0.2071546668867114 0.15953935105420686 0.21470760165131725 0.18048237428340327
0.0988113157803664 0.09346581984009456 0.04301115018995138 0.17421495426856895 0.5461130273425788 0.7112335391852548 0.2779055679554988 0.09828006162497065
0.09508137278597749 0.045409095200392116 0.151933025757949 0.4226368483234661 0.6670051310062096 0.2719369856763876 0.0963277483734412 0.0889112005497209
0.039337114203746575 0.21994069924100307 0.15550492839543043 0.2001710975937492 0.16322084953566854 0.0977606086295617 0.09248815318194092 0.04069116322002372
0.2025260790417943 0.5263097978707116 0.7244981274947717 0.2815567785507498 0.09644000270779039 0.09348510167724156 0.04224080032610051 0.19936368294039447
0.3836936728567001 0.5994405940552242 0.24470467396360654 0.09626844285827071 0.08912949894505648 0.039117765051193173 0.23331817444925798 0.14385516721061867
0.1958379184125441 0.16812706219992635 0.09709888804430722 0.09150086369852484 0.039359818198471425 0.22459020842271465 0.5188162810675715 0.7079198529353397
0.3246918435071583 0.09547504970530304 0.09184432329798684 0.03947577677890991 0.21821134570171657 0.3700406218524538 0.5636777763269426 0.2574590566585729
0.011352184436997035 0.01455697109724438 0.0032257135843430707 0.01137796121693917 0.014601284067990166 0.003551478641311488 0.012305070695153554 0.016282566849738642
0.004090490938278494 0.012733272840129853 0.017482059301319085 0.004594510830239733 0.013246691462527613 0.016674050168574008 0.0037864579793145947 0.014166824687144862
0.018223095953513478 0.004585265934550672 0.014821229473555953 0.01953258940191353 0.006430197304518819 0.012885835844261992 0.01646632634403438 0.0035437505261586765
0.013434677623449433 0.017891296269932088 0.004081405458464872 0.01334756003609515 0.018694257010392495 0.0049719692899847685 0.012990261222735616 0.016233745160665853
0.0035607575519748837 0.013451271299751202 0.0171659605151057 0.004327697878664328 0.013376487184287796 0.017769315765893443 0.0060766312071929 0.013485143202441114
0.016122142659730103 0.003818525238062846 0.013792539925197331 0.016741433263189956 0.0037815942892282057 0.013662294041886448 0.01700850992275511 0.004712105790731739
0.003640170764494179 0.004983561560903215 0.002228921995390787 0.00643879337266775 0.006399777887655184 0.0026277934027923696 0.006657023654017297 0.007737951073722163
0.0033545407890492795 0.0057794660724240585 0.008744043601851676 0.004265496751989853 0.006450321245719849 0.006120033362604829 0.0027644561928188895 0.0069203588708252875
0.006964665255564016 0.004022780480399782 0.007796786220313559 0.008370679541942582 0.00730463311608937 0.004292532328732882 0.005748519955940123 0.00262217635960773
0.005039495315181448 0.008552218371980962 0.003390382739250854 0.0053133809157683625 0.010778128383722987 0.004771138344406427 0.005187680236010999 0.0058079457121963975
0.0028504143311245005 0.005988272555152796 0.006877845060677149 0.004454831735023741 0.006706846680048464 0.009005549076320151 0.007678115571942076 0.007686724457268563
0.006155792591256946 0.003238050635902819 0.00799319799237514 0.006322990779207422 0.003196631421619895 0.008408794334693137 0.007278546341822768 0.005069453495921251
